app/src/main/assets/intent_model.tflite (tflite, 325316 bytes, 5 tensors)

arith.constant f4 [17, 16]
00000000: 4a44 8ebe 54f7 a6bd 90f6 b1be 7b88 93be
00000010: 84ac d0be 2cca c4be 386a cf3e a25a a4be
00000020: ff04 a8be 64ad 1e3e 9a82 603e 5283 d1be
00000030: 39af 3bbe 48d1 873d d734 a5be 2102 1fbd
00000040: f39a 493e 8843 0b3e 043a 76bc aebe e8be
00000050: 6edd bbbb 9f97 e8bd 5fbf 053e cad1 813e
00000060: bc30 a2be b7f3 4e3e c169 b73d 3537 39be
00000070: f03f 833e e693 cbbe ff38 803e 33db 843e
00000080: 37de fa3e fc01 7c3e af8f e7be c880 993d
00000090: d8b2 a03e a059 673e a286 f53d 52a9 3bbd
000000a0: c521 fdbd 949c ff3d f1a4 cb3d 0c96 fbbe
000000b0: 2250 cbbe 5e6f a03e 56cf c4be aa06 843d
000000c0: 8e9c e03e e613 873e 2cd3 8abe fc6c b7bd
000000d0: ed4d d6bd 03c1 0bbe e3a9 98be beed 3f3e
000000e0: 0e4a 93be 1bd4 e9be 4e2e f4bd 2a1c 1abd
000000f0: 3472 d13e 5926 b3be e055 2cbe 07ff b63e
00000100: 4b2e 9e3d 618f dc3d 4041 f2bd bc68 e03d
00000110: f929 be3e b3f2 26be d49b e73e 31f0 8ebd
00000120: 6f79 b93d b41a 6ebe 6704 2c3d 670d b2be
00000130: a58b afbe 5b5b a0be 34e5 85be 2de5 553e
00000140: 0208 23bd 364f d63e e2ae a03d e788 82be
00000150: 89cd dabe 072c a2be d4ab 33be 1493 c8be
00000160: b101 6c3e 4afd 8a3e 0213 1e3d 9d9c a33e
00000170: c1da 99be 477c d43e 6d0e c3be dec6 893e
00000180: faee 163e 3993 f83d f31d 523e e451 d6be
00000190: a258 99be 3f57 27be ef31 703e 2b5a 913e
000001a0: 6628 df3c 411c c3be 2b65 263e 593a 7bbe
000001b0: 8b14 793e 963b 8fbe e790 c5be ac30 bbbd
000001c0: edac aeba abc7 933e 0fa2 833d 306f e43d
000001d0: fb6b 7dbd e2f4 91be 3fd6 07be 1ff4 fabe
000001e0: 006a 0c3e 666a 7d3e 2e83 a83e a0cf d03d
000001f0: b697 dcbd 3c71 88bd a83e 18bd 635c f8be
00000200: 4ef5 f7be 1e91 0fbe c924 9c3e 56f4 a93e
00000210: 462a f8bd 6f14 81be 9000 4abe 61ac 99bd
00000220: 7544 503e be55 f73e db6f ce3d 0e4f 963d
00000230: 2d17 8ebe a4a0 aabe 92f5 673e 31ca 9cbe
00000240: 50b9 cabe 2e39 c83e 6dec afbe 3b3c 97bd
00000250: 1014 493d 6dd0 5c3e ffca 6b3e efd1 26be
00000260: e215 5b3e 270b 90be 8725 bc3d e8f9 0a3e
00000270: 61d9 f23d 5ccb 8abd 0365 8e3b 3e16 83be
00000280: bcae c0be 70be 29be d753 91be 4998 113e
00000290: f8c6 92be e7d3 2cbe 7372 bbbe 0783 e73e
000002a0: 262c 983d 0272 d63e 1dfa 573e 0491 9fbe
000002b0: 5470 863e 230e cebe 66c5 7ebe 5edd e33e
000002c0: edd4 c9be 512b 48be a076 2a3d 91db 203e
000002d0: a7ef 0dbd 2fb5 d3be 4a19 78bd d202 013e
000002e0: da79 d33e 712a a23e d0be c03e 32a4 c1be
000002f0: 60cb 10be 7f6f 283e 37f6 ae3d 43cc 3fbd
00000300: 7cd3 a5be 5b73 3b3e c7c8 9e3e c6cb f73e
00000310: 18f9 99bd 8604 563e 4f64 e9be 820e d6bd
00000320: 243f 673e adac 0fbe c052 aebe cd2f b63e
00000330: cc57 bd3d 53e7 8a3e 9742 b0be 9510 e5bc
00000340: bf02 083e 4dd8 a6be 2c19 f5bd 059c 02bf
00000350: 4946 aebd ce10 843e 5c84 be3e fd01 e0be
00000360: ef62 c9be a8ec 4a3d a0d1 333e 9086 93be
00000370: 23d9 3d3e 76e5 ce3e 4148 603e befe 1e3e
00000380: cac8 be3e 1921 533e 144b 07bd 64ef 823e
00000390: 91bc b0be f07c a1be 432b 8abe cf03 823e
000003a0: ea05 7c3e c18c da3d 26ae 39be 3ff9 283e
000003b0: 3c02 eebe ffad 73be 5b30 893c 93f7 003e
000003c0: eb30 66be b240 bebd 768a 9fbd 1477 bcbd
000003d0: ee1c 97be 24a9 ac3d 4166 41be 2c16 c63e
000003e0: 5c57 fabe 3e75 b13e f0bd bfbc 8e3f 07be
000003f0: 4eee 3c3c 16be e8be 5230 613e 98ad 8a3e
-0.27786475 -0.08152643 -0.34758425 -0.28815064 -0.4075662 -0.38435495 0.40510726 -0.32100397
-0.32816312 0.15495831 0.2192482 -0.40920502 -0.18328561 0.06631714 -0.32266876 -0.03882039
0.19688015 0.1359998 -0.01502848 -0.45457977 -0.0057331836 -0.113570444 0.13061284 0.2535537
-0.31677806 0.20210157 0.08955718 -0.18087466 0.25634718 -0.39761275 0.25043485 0.25948486
0.4899766 0.24610132 -0.4522681 0.07495266 0.31386447 0.22592783 0.1198857 -0.045815773
-0.12359957 0.12481037 0.099435695 -0.49137914 -0.39709574 0.31334966 -0.38439435 0.064465836
0.43869442 0.2638237 -0.27114236 -0.08956334 -0.10464082 -0.13647847 -0.29817113 0.18743035
-0.28767437 -0.45669636 -0.119228944 -0.037624516 0.40907443 -0.34990194 -0.16829634 0.35741445
0.077236734 0.10769535 -0.11828852 0.109574765 0.37141398 -0.1630352 0.45236075 -0.069794066
0.09056365 -0.23252374 0.041996386 -0.3477585 -0.34286228 -0.313197 -0.2615143 0.20888205
-0.03980256 0.41857308 0.07845856 -0.25495073 -0.42734936 -0.31674215 -0.17546016 -0.39174712
0.2304752 0.2714637 0.038592346 0.31955424 -0.30049708 0.41501066 -0.38096943 0.26909536
0.147396 0.121374555 0.20519237 -0.41859353 -0.29950434 -0.16341875 0.23456548 0.28389105
0.027240943 -0.38107494 0.1624953 -0.24533977 0.24324243 -0.27975148 -0.38587114 -0.09140143
-0.0013326682 0.28863272 0.064273946 0.1115402 -0.061870556 -0.28507143 -0.13265322 -0.49014375
0.13712311 0.24747619 0.32912582 0.10195851 -0.10771124 -0.06662223 -0.03716913 -0.48507985
-0.4842934 -0.14020202 0.30496815 0.33194226 -0.12117438 -0.25210902 -0.19726777 -0.07503582
0.20338614 0.48307604 0.100799285 0.07339297 -0.27752057 -0.33325684 0.22652271 -0.3062301
-0.39594507 0.39106125 -0.34360066 -0.07384535 0.0490914 0.21563883 0.23026656 -0.16291021
0.21395066 -0.2813351 0.09186845 0.13571894 0.11857868 -0.06777069 0.0043455376 -0.25602907
-0.37633312 -0.16576552 -0.28384277 0.14218248 -0.28667426 -0.1687771 -0.36610755 0.45217153
0.07430296 0.41883856 0.21091504 -0.31165326 0.26257575 -0.4024516 -0.24879989 0.44504827
-0.39420262 -0.19547774 0.041617036 0.15708758 -0.03465238 -0.4134917 -0.060570993 0.12598732
0.41303903 0.31673005 0.37645578 -0.37820584 -0.14140081 0.16448782 0.085430555 -0.04682566
-0.32387912 0.18305723 0.31012556 0.48397654 -0.07518214 0.20900163 -0.45584342 -0.10451986
0.2258268 -0.14030714 -0.34047508 0.35583344 0.092452615 0.2712961 -0.34425804 -0.027962008
0.13282298 -0.325869 -0.11967692 -0.51019317 -0.085094996 0.2579407 0.37210357 -0.43751517
-0.39333293 0.0495421 0.17560434 -0.288136 0.18539862 0.4040944 0.21902563 0.15526864
0.37262565 0.20618095 -0.033030584 0.25573266 -0.34518865 -0.31540632 -0.2698613 0.2539353
0.24611631 0.10671378 -0.18132839 0.1650133 -0.4648608 -0.23796843 0.01674669 0.12594442
-0.22479598 -0.092896834 -0.07790081 -0.092024 -0.2951426 0.084306985 -0.18886663 0.3868879
-0.48894775 0.3465976 -0.023405999 -0.13207838 0.011531426 -0.45457524 0.21991089 0.27085567

arith.constant1 f4 [16, 16]
00000000: 6d38 efbe 9e9a 013f 03a4 dbbd 504c edbe
00000010: f6c3 bf3e 604e b23e c3c0 72be 1c35 fc3e
00000020: 03ce 86bd adde 933e 39b7 d03d 2bab ffbe
00000030: b941 eebe 2671 d0be fd29 13be 72ec 613d
00000040: 7fdb 673e ecef 9b3e 6910 503e 4d80 c33d
00000050: 0c22 7d3d f0d5 85be 166f 8d3e ba41 d3be
00000060: a5d9 493e c35d 453e e224 13bd 9c89 1bbe
00000070: 2da4 283e 87b6 ab3d faf0 21bc 1916 ae3e
00000080: 98e9 05be aa95 20be 90c9 f23e 25ad e4bd
00000090: e2a4 bbbe f67e 8a3e f6e2 3d3e f908 8c3e
000000a0: 33bf 73be 4e6f 723e ed7c d33e 3733 9e3d
000000b0: 4412 b53e c978 8a3d b378 5a3d c0ff 8b3c
000000c0: 16bb 993e 00b5 c2be 88b7 c23d 38b0 bfbe
000000d0: c51b c3be 039c 483e 80ea dd3c 72d9 483e
000000e0: 5f56 43be d69c 2d3e 978a 8b3e 8fcc ff3d
000000f0: f65d ba3c dc5b a1be d247 b1be 90d0 a7be
00000100: 65dc 823d 7ac6 943c 339c b7be 16c8 183d
00000110: 3b30 c33e 90c3 2f3c 36b3 68be dd3b 3bbe
00000120: 5386 6dbe 6df9 b9be 33aa bd3e 7eee a0be
00000130: d046 bd3e d88e cfbd 5f8d 8fbc cc89 063e
00000140: cd1d 5fbe 1e5a e33e 2201 6c3e c231 52bb
00000150: c5e7 013e 5517 00be ef84 d0be ab27 66be
00000160: 18bf d1be 49ad 0bbe fb2a babe 418e a63d
00000170: baf5 6dbe 4daa 1fbe f971 ac3e 7e96 c23e
00000180: a6c1 44be c2b0 c03e 748e 7f3d 15b2 bdbe
00000190: 1bea 553e dd85 4cbe aa04 03bf 5ae6 d4bd
000001a0: ddaa ed3d 07a5 083f fda8 e9be 3def d53e
000001b0: 7628 c23d 82fd eb3e 3d55 ccbe 95d1 d7be
000001c0: 4093 80be a104 4cbe c592 df3e b161 e1be
000001d0: 50d3 7dbe 2a68 aebd f01b 79be 299c e6be
000001e0: da16 923d f84b 443e 1868 9d3c e41c 443d
000001f0: c70f e3bd dfcc 6abe dc36 0b3e 9903 9b3e
00000200: fafc a2be 6fe6 9a3e 792c d93e f416 b83e
00000210: 6b6f f6be fc1b ecbe 285b de3e 9fb0 033f
00000220: 2994 dabd 1419 bbbe a43f d03d 2cea 203e
00000230: eea8 d53d dff8 ae3e 3867 d9be f6b3 d2be
00000240: c0cd 5cbe f417 b6be a7d9 b93e 7293 c4bb
00000250: 04de 023e 8385 eebe 7e38 9abe a84c c7be
00000260: ebf8 633e 8b9f 913d 75d5 a93e 835f 19be
00000270: 2ba9 86bd ae1c 9dbd 2a4e 9ebe 1963 303c
00000280: 2799 ac3e 6b4e 923e dc47 98be 6afa bf3d
00000290: b0de 263e f496 f13d f225 b53e 30ec 893e
000002a0: bc13 2dbe 8535 893e b815 debe 3778 c5be
000002b0: 396c d3bc 8777 d73e d32d 90bc fea8 dcbe
000002c0: aa66 aa3e 6b72 d5be d031 013e cd9a 4cbd
000002d0: 3b65 01be 583c e2bd aace f73e c513 75bc
000002e0: 0071 c0be a770 983e 9848 963e cae9 97be
000002f0: 5a8a f9bd 9f13 993e e09c 233e 94de b8be
00000300: 3c4d c4bd 2749 68be 9253 9ebe db5a a33e
00000310: 6ec5 c33e f7e7 183e 3063 babe b3e8 cabd
00000320: dc6f e4bd cf12 acbe e52d 493c 7be1 0cbe
00000330: 9595 6e3e f8ae 2abc 91dd 93be a1e1 dc3e
00000340: 5e3e bcbe f8e6 d53d 2b2b 6d3c 8a6e fc3d
00000350: acfa 0cbe 7ac1 2bbe ed34 033f 22b9 af3e
00000360: 8eff d8bd f52e ac3e 3996 2cbe b705 ecbd
00000370: 691a ca3e f458 86be 7597 e7be dcbf 8e3e
00000380: f70e b13e af95 2cbd 876d 2c3d 77b1 8cbc
00000390: 6308 33bd c76f b5be 06bf 8dbe 7ee9 0bbe
000003a0: 91d4 63be 37ab 85be e577 373e d4a5 e3be
000003b0: 3da0 753e c264 993d 7589 39be e698 183e
000003c0: 2553 5ebe 64af 3f3c 785b b53e 42cd d83c
000003d0: afa1 b33e 0b7e 033f 394e bdbe eda5 5ebd
000003e0: 96ce f73e df23 e5be 4468 00be cccf d6bd
000003f0: 644f a73d b8c7 80bd 63c0 e13e e603 e63e
-0.46722737 0.5062655 -0.10724642 -0.46347284 0.37454194 0.3482542 -0.23706345 0.4925927
-0.06582262 0.28880826 0.10191197 -0.49935278 -0.46534517 -0.40711325 -0.14371486 0.055157132
0.22642325 0.30456483 0.2031876 0.09545956 0.061800048 -0.26139784 0.27623814 -0.41261083
0.19711931 0.19274049 -0.035923846 -0.15189213 0.16468878 0.08384424 -0.009884113 0.34001234
-0.1307739 -0.15682092 0.47419405 -0.11165837 -0.36649233 0.27049989 0.1854361 0.27350596
-0.23803405 0.23675272 0.41306248 0.07724612 0.35365498 0.06761319 0.053337764 0.017089725
0.30025548 -0.38028717 0.09507662 -0.37439132 -0.38107124 0.19590764 0.027089357 0.19614199
-0.19075917 0.1695436 0.27254173 0.12490188 0.022749882 -0.31515396 -0.34625107 -0.32776308
0.06389693 0.018161047 -0.35861358 0.03730019 0.38122734 0.010727778 -0.22724614 -0.18284555
-0.23195772 -0.3632311 0.37043914 -0.31431955 0.36968088 -0.10134667 -0.017523466 0.13138503
-0.21788712 0.4440469 0.23047307 -0.0032073115 0.1268607 -0.125089 -0.4072642 -0.2247607
-0.40966105 -0.13640322 -0.36360916 0.081326015 -0.23238268 -0.15592308 0.33680704 0.3800544
-0.19214496 0.37634856 0.062391713 -0.37049928 0.20890085 -0.1997294 -0.5117899 -0.103954986
0.11604855 0.5337681 -0.4563674 0.41784087 0.094803736 0.4609185 -0.39908782 -0.42152086
-0.25112343 -0.19923641 0.43666664 -0.44019845 -0.2478764 -0.085159615 -0.24327064 -0.45041016
0.07133265 0.19169605 0.019214675 0.047879115 -0.11086994 -0.22929715 0.13595146 0.30276182
-0.3183363 0.30253932 0.42416742 0.35955012 -0.4813188 -0.461151 0.43428922 0.5144138
-0.106727906 -0.3654257 0.101683885 0.1571433 0.104326114 0.3417425 -0.42461562 -0.41152924
-0.21562862 -0.3556515 0.36298868 -0.005999022 0.12780005 -0.46586236 -0.30121225 -0.38925672
0.22262923 0.071105085 0.33170667 -0.14977841 -0.06575235 -0.07671486 -0.3091901 0.010765814
0.33710596 0.28575453 -0.29742324 0.093739346 0.16295886 0.1179637 0.35380512 0.2693801
-0.1690206 0.26798645 -0.43375945 -0.3856828 -0.02580844 0.4208338 -0.017599976 -0.4309768
0.3328145 -0.41688856 0.12616658 -0.049952317 -0.12636273 -0.11046666 0.4839986 -0.014958327
-0.37586212 0.29773447 0.2935226 -0.29670554 -0.121845916 0.29897782 0.15977812 -0.36107314
-0.09585044 -0.22684155 -0.30923134 0.31905255 0.38236564 0.14932238 -0.364038 -0.09907665
-0.11154148 -0.336081 0.0122790085 -0.13757889 0.23299249 -0.010417692 -0.2887998 0.4314089
-0.36766332 0.104444444 0.014475624 0.12325771 -0.13767499 -0.16773024 0.51252633 0.34320933
-0.10595618 0.33629575 -0.1685418 -0.115245275 0.39473274 -0.2623974 -0.4523274 0.27880752
0.3458173 -0.042134937 0.04209664 -0.017174466 -0.04370917 -0.35436842 -0.27684802 -0.13663289
-0.22249056 -0.2610719 0.1791683 -0.44462454 0.23986907 0.07489921 -0.18118842 0.14902076
-0.21711405 0.011699531 0.35421348 0.026465062 0.35084292 0.513642 -0.36973742 -0.054357458
0.483998 -0.4475393 -0.12539774 -0.10488853 0.081694394 -0.06288093 0.44092092 0.4492485

arith.constant2 f4 [5000, 16]
00000000: ca53 ecbd c9c3 333d ae3d f63d 6e58 37bd
00000010: 1aad 03bd f6b9 223d 880a cb3c c7e9 8e3d
00000020: 66f6 953c c554 433b df7e 583d 4f4f 2e3c
00000030: 3a28 6fbc 12bf 823d 60b1 16bd 3afe 7dbd
00000040: 80ee a2bc 337a 033d 53af d4bc 675b 163d
00000050: 5ae7 efbc da2b debc 64a5 5a3c 233c 3b3d
00000060: e423 643c 7afd 3dbd 9a7a ad3c b400 143c
00000070: 63f2 223d e9bf 0b3d 109b 43bd 839e 13bd
00000080: 0e26 98bd 49d3 533d fdd2 a43b 561d eebc
00000090: a22d 9b3d d770 303c 7786 9dbd 8248 ce3b
000000a0: 49a6 f63c 425b 613c 8b4f 273c a965 bf3a
000000b0: 0737 e33c 2d24 1d3c 1e5c 55bd b364 153d
000000c0: cfd7 87bd 364d 62bd 6be7 313d da49 1dba
000000d0: 45cd bfbd 9c13 c5bd 7d96 1f3d 64ea 4b3d
000000e0: f19e 3ebd 9cb7 5a3b b341 163d 8fa3 d13c
000000f0: fe33 a63d cca4 ab3c a226 2fbd 6ed6 34bd
00000100: cfc5 a03b f65a 47bc 29e0 ca3d 96e8 543d
00000110: 2751 7abd bea8 a5bd 13eb e33d 1ec9 c53d
00000120: 7799 26bd ac10 77bd 975c 9c3d 2349 6abc
00000130: 8d69 fd3d 80c1 a23d 0ef5 f0bd 8f93 62bc
00000140: b73c 83bc 663a 15bc c2ac a73d bd83 32bd
00000150: 3a8b 3fbd 97c0 66bd f006 51bd 502d 47bd
00000160: 6109 bdbc aa8d 8d3d 2a23 c6bc 580f a9bb
00000170: ba0d 403d 8c31 d23c da58 a1bd e09a 2dbd
00000180: fbc5 82bd 6de9 1dbb b24d 23bc f667 303d
00000190: 9589 e4bc 078a ca3c 48e3 133d ddf0 2a3d
000001a0: c63a debb ddcb 9e3c ca73 083d da65 9ebb
000001b0: 3de6 e4bc edb8 21bc c28e 29bd b4ff 7f3c
000001c0: 7b39 0a3e 47e8 adbc d32a b4bd 6450 a8bd
000001d0: 25f5 263e 4c72 b83d 45db 97bd b026 87bd
000001e0: a471 ee3d 33cb 573c 886b 00be 0e9b cfbd
000001f0: d483 b1bd 720a b7bc 3bbc 2f3e 5e95 503d
00000200: 9b04 bebd bb6d 2dbc d7a6 e83c 60bc 633c
00000210: 9960 7bbd edf6 13bc dd79 29bd c42c 2e3d
00000220: f5d4 0e3d 7e88 cabc f9a0 523c bbb7 a9bb
00000230: 93d0 6d3d 09ad 083b e216 94bc 8121 d6bc
00000240: a28e 713c 247b babc 000e f03d d7aa 053d
00000250: 70de 52bd 3521 67bc c776 c53c 8c57 2dbd
00000260: fed5 13bd 70ce e9bc 91f0 4d3d 9c74 41bd
00000270: 62fb 543d 85ac 403b 94ab 3dbd 3176 5f3d
00000280: cdd3 1dbe 2316 353e 2f71 cfbd d800 cbbd
00000290: 162d 343e 8f08 d43d f258 cabd 6f47 b03d
000002a0: 4cd3 773d a2f8 523b 9d64 33bd 003c 22be
000002b0: e0c8 3dbe 5fbc 38be deab 84bc 86b0 173e
000002c0: 5f74 f4bc 8f65 4fbd abf6 d53d 170e 653c
000002d0: 36bb b1bc 9e73 c5bd 1845 e03c b16a a43b
000002e0: d8f9 52bc 6145 03bd fe7e 62bb 9598 7fbd
000002f0: d72e 353d fccc 1f3d 33fc 87bd 3ed0 323d
00000300: b11d 2e3d 8563 cdbd d3a0 f33c 50bf a43d
00000310: bc94 9abd 8abc bcbd b2a8 b53d 9937 26bc
00000320: 681d c3bb a808 1dbc 35e5 193d c865 1c3c
00000330: d39a 363d 5030 9a3d 1218 003b 25ee e9bb
00000340: bd9d 873c 9773 d6bc 6f56 933d a7c7 163d
00000350: 2495 d0bd 828d 99bd 02c7 c73d be1a 8b3d
00000360: 9c52 aebc b106 1ebd 92e7 993c 068d 01bd
00000370: 2894 323d 1b1e cb3c 300b 9cbc 26e2 ecbc
00000380: 5472 14bd b88b a6bd 9afb ea3c 8aeb 3d3d
00000390: d859 10bd 3903 73bc 4e3d 6b3d 994e 9b3c
000003a0: b855 36bd 1d50 523c 68aa 6a3b 3308 1abc
000003b0: 7216 543b ef62 7a3d 19c5 92bd d621 85bc
000003c0: 995e 14bd 9949 00bc 9f8f e23d 8df4 903d
000003d0: 516d b3bd b51c 3fbd a6d1 903d 31fc 653d
000003e0: cd15 6abc 31bf e1bc 12db 693b edfa 35bd
000003f0: 8569 aa3d 1065 8b3d f2ea 51bd 9b4f c7bc
-0.11539419 0.043887887 0.12023483 -0.044762067 -0.032147504 0.039728127 0.024785295 0.06978183
0.018305968 0.0029805165 0.05285537 0.010639026 -0.014596993 0.063841 -0.03679025 -0.062010027
-0.019889116 0.03209896 -0.025962507 0.03670826 -0.029285122 -0.02712052 0.013345096 0.045711648
0.013924573 -0.046384312 0.021176625 0.009033371 0.03978194 0.034118567 -0.0477553 -0.03603984
-0.07429133 0.05171517 0.0050300346 -0.029066723 0.07577063 0.010769091 -0.07691663 0.0062952647
0.030108588 0.013754668 0.010211836 0.0014602441 0.0277362 0.0095911445 -0.052089803 0.036472987
-0.06632959 -0.055249415 0.043433588 -0.00060000794 -0.09365324 -0.09622881 0.038961876 0.04978408
-0.046538297 0.00333736 0.03668375 0.025590686 0.081153855 0.020952605 -0.042761452 -0.04414981
0.004906393 -0.012167683 0.099060364 0.051979624 -0.06111255 -0.08088826 0.11128821 0.09657501
-0.0406737 -0.060318634 0.076348476 -0.014299664 0.12373648 0.079470634 -0.117654905 -0.013829126
-0.016020162 -0.009108162 0.08187248 -0.043582667 -0.046763636 -0.05633601 -0.051032007 -0.048627198
-0.023075761 0.06911786 -0.02418669 -0.0051593 0.04688809 0.025658391 -0.07878275 -0.04238403
-0.06385418 -0.0024095431 -0.0099672545 0.043067895 -0.027897635 0.02472402 0.036105424 0.04173361
-0.0067819087 0.019384319 0.03331355 -0.004833919 -0.027941817 -0.00987075 -0.04139591 0.015624929
0.1349849 -0.021228923 -0.087972306 -0.08218458 0.16304453 0.090061754 -0.07414869 -0.06599176
0.11642769 0.013171005 -0.1254102 -0.10136996 -0.08667722 -0.022343848 0.17161648 0.050923698
-0.09278222 -0.010585244 0.028399868 0.013899893 -0.06137142 -0.00903104 -0.041375984 0.04252316
0.03487106 -0.024723288 0.012855762 -0.005179373 0.05806024 0.002085509 -0.018077318 -0.026139023
0.014743479 -0.022763796 0.1172142 0.03263363 -0.051481664 -0.014107038 0.024104489 -0.04231982
-0.03609275 -0.02854082 0.05027825 -0.047230348 0.05199755 0.0029399705 -0.046306208 0.054556075
-0.15412827 0.17684226 -0.1012901 -0.0991227 0.17595324 0.10353195 -0.09880246 0.08607375
0.060504243 0.0032191654 -0.043797124 -0.158432 -0.18533659 -0.18040608 -0.016195234 0.14813432
-0.029840646 -0.050633963 0.10447439 0.01398041 -0.021695714 -0.09641193 0.027376696 0.0050176014
-0.01287695 -0.032048587 -0.0034560557 -0.062401373 0.044234123 0.039013848 -0.066399 0.043655626
0.042508785 -0.100287475 0.029739773 0.080443025 -0.075479 -0.092156485 0.08870067 -0.010145091
-0.005954433 -0.009584583 0.037572104 0.009545751 0.044581246 0.07528746 0.0019545597 -0.0071389847
0.016554708 -0.026178164 0.0719422 0.036811497 -0.10184696 -0.074976936 0.097547546 0.0679221
-0.021279626 -0.0385806 0.01878718 -0.03162863 0.043598324 0.024794629 -0.019048303 -0.02891643
-0.036241844 -0.08132118 0.028684426 0.046367206 -0.03524193 -0.014832311 0.05743151 0.018958377
-0.04451534 0.012836483 0.0035807136 -0.009401369 0.0032362011 0.061129507 -0.071665 -0.016251486
-0.036223028 -0.007830047 0.1106255 0.07077894 -0.08761085 -0.046658237 0.07071237 0.05614871
-0.014287424 -0.027556987 0.0035683555 -0.044428755 0.083209075 0.068063855 -0.051249452 -0.024329951

arith.constant3 f4 [16]
00000000: 04a1 ce3c 872b e4bc 5722 d23c 1bac 143c
00000010: d5aa d0bc 6bfc 84bb 7503 103c d59e ad3c
00000020: 17cc c93c 57bc 0c3d 9315 ea3c 684f 2e3d
00000030: 2c68 833c 37a2 e13c 4723 643c 5400 593d
0.025223263 -0.027852787 0.02565114 0.009074236 -0.025472084 -0.004058411 0.008789887 0.021193901
0.02463345 0.034359302 0.02857474 0.042556196 0.016040884 0.02754317 0.013924426 0.05297883

arith.constant4 f4 [17]
00000000: 4f3d 733b 2472 eab9 d765 80bb 44da d8ba
00000010: 736a cfbb d106 4dbc 6ae4 01bc 26f2 133c
00000020: 200e bf3c 8137 fcbb f781 733b 5c7b dbbb
00000030: 50dc 473a 9790 ea39 8824 b4ba a286 863b
00000040: bd93 21ba
0.00371154 -0.00044717 -0.0039183903 -0.001654454 -0.0063298284 -0.012513832 -0.007927993 0.009029901
0.023322165 -0.0076970463 0.0037156323 -0.006698055 0.00076240767 0.00044739686 -0.0013743797 0.004105405
-0.00061636773
